hw1/my_data/model.npy (npy, 736 bytes, 1 tensors)

array f8 [82]
00000000: 2791 7bff 4e97 ea3f d3e0 549f 9712 f43f
00000010: ca0e da6b 5cd1 1bc0 9b22 45ff 3758 1e40
00000020: beb5 cd13 9efd 0340 029c 8315 3ae7 22c0
00000030: 6dcf 888f c8f7 1740 9973 d072 a1c5 1240
00000040: 9866 e708 48bd 0540 c4cf 015c 4c45 fabf
00000050: e26f 8ad9 afa6 06c0 9240 c833 bdd1 3840
00000060: 84a0 fe06 91db 38c0 23f5 c55f c0e1 1ec0
00000070: 435e a95e 6cf6 4c40 b788 2093 f948 4ec0
00000080: 2a3f ddd3 8eb7 e63f 94e1 5383 1327 5b40
00000090: e204 da1d 7242 f93f 785b 0f57 704e 08c0
000000a0: 3e93 5f4a 6546 d7bf d600 b9c1 861d 06c0
000000b0: a49b b758 46a0 f63f bdd2 0158 099e c43f
000000c0: 78cb 57c6 c543 08c0 efdc 2902 8d41 08c0
000000d0: 141f 0b14 51f6 2b40 5153 52da d005 d33f
000000e0: 51ce d208 8a00 adbf 5ecd 2adb a208 0c40
000000f0: 0886 5615 0a30 d6bf f891 0985 94ae db3f
00000100: bc38 3734 9ab0 0ac0 fde5 bb40 6609 953f
00000110: 34c5 be15 0f74 0740 aa0a 5920 5613 bfbf
00000120: 57d5 e2d9 d745 1ac0 8296 67f2 0238 1a40
00000130: c077 fb43 a384 f7bf 4fa1 4a80 e121 f8bf
00000140: 3e87 fe1e 6e67 b8bf bc3b 12c8 ff0c fc3f
00000150: aa41 0e4f 6730 0cc0 24f2 5566 17e4 0240
00000160: eaf6 714f 6228 1040 e47b 1315 4fc4 c33f
00000170: 1ccf 1403 aee0 0f40 6a0a cb35 802f 11c0
00000180: 82dd 671c f601 0bc0 fcb5 8cd5 7d88 0cc0
00000190: 593e 1602 368c f1bf 68df 41b0 03b2 21c0
000001a0: bbac 3a18 0ee3 e23f 66a2 bdfe 4080 3a40
000001b0: 6960 e72a 3cc5 1bc0 3bba 8849 4548 1940
000001c0: 9498 e0b8 8746 1ac0 d150 5ee9 0a13 ef3f
000001d0: 8f9f 7b27 21a4 2040 a408 6f25 4af8 efbf
000001e0: 3ce1 572b f261 2cc0 8b35 9b45 d290 2a40
000001f0: b59f 1cd7 01a4 fb3f a21f ab0b 08ee e23f
00000200: 4f84 0c17 e8c4 fd3f 3c42 409b f8e3 1140
00000210: 40aa 6632 04e5 03c0 6088 3474 1143 28c0
00000220: 01b7 7369 bf88 2140 274f af81 4c6f 0340
00000230: a708 0a4c 0f43 31c0 c51c 0961 afee 2940
00000240: 43b0 5112 8590 e13f 21e2 3757 641f 02c0
00000250: 6399 de0d e620 0d40 82f3 9ac2 bf63 06c0
00000260: 6291 9cc7 ead7 1940 7896 ce83 5b7d 19c0
00000270: fb93 33fc b53e 1b40 efb0 2124 8703 15c0
00000280: 62fc bf81 11a6 0ec0 8eb8 06f5 8734 f7bf
0.8309702863594212 1.2545391296280755 -6.954454121765318 7.586151112169911 2.4988366648819627 -9.451615021052934 5.991976015782581 4.692998689625619
2.7174225516908557 -1.6419185251261164 -2.83139009431578 24.81929324759455 -24.857681691326903 -7.72046041150796 57.925182182978936 -60.57011641586853
0.7099069726918732 108.61056597892303 1.578722111328084 -3.038300209194343 -0.3636716104795602 -2.7644171843131558 1.4141295876995423 0.16107289120886562
-3.033092069200787 -3.032007233526762 13.98108732829818 0.29722997017352265 -0.05664473874767551 3.5042168734013748 -0.34668209155833596 0.4325305270379256
-3.336231620726805 0.020543668461845844 2.931669397243832 -0.1213888005232017 -6.568206219167528 6.554698741505151 -1.469882264667362 -1.5082716952693607
-0.09532821900077423 1.7531736197740733 -3.5236345459199656 2.3613727564791294 4.039437524157373 0.15442837266070264 3.9847069016194734 -4.296387520330066
-3.3759577006528056 -3.566646259647994 -1.0967311936873527 -8.847684391060923 0.5902166817881133 26.500991746232465 -6.9426123336525984 6.320576809854681
-6.568877114017727 0.9710745389916388 8.320565446701748 -0.9990587931754544 -14.191300730206983 13.28285424728053 1.7275408175282625 0.5915565708064501
1.860572900805227 4.47262804584221 -2.486824411161507 -12.130992537892041 8.767085357070302 2.4293451434731597 -17.261952164125116 12.966181785929061
0.5488915784640159 -2.2653281034402117 3.641063793521583 -2.7987055972611765 6.460856551104685 -6.372419414028279 6.8112410932999365 -5.253445210033745
-3.831088079139179 -1.4503249713266402
