hw1/my_data/model_best.npy (npy, 872 bytes, 1 tensors)

array f8 [99, 1]
-0.003561727629780256 0.008093236739549573 -0.01287833116396762 0.010033877004736179 0.006581371358328268 -0.0011082594740239626 -0.009242601936960648 0.009225198320688237
0.058459389550314905 -0.026037263849180717 -0.03252071979917668 0.25830655907705785 -0.2504940888088172 -0.11272105234008449 0.5680979508853584 -0.5782809130173436
-0.013083143040912196 1.0097742382602026 -0.011930486932392206 0.026429825094519747 -0.02575522465417696 0.019252799444684474 -0.025555344344429465 -0.036822582993125234
0.005554717372485675 0.042146180818710084 0.03863057556134382 -0.0019171445389784306 -0.00019344982170315745 0.001412730403803752 -0.0013739385296675916 0.0006084207135653947
-4.744695124031741e-05 0.0009038156841685856 -0.0011544426399587972 0.0015633397140336484 -0.2184990019714436 0.0312510454316985 0.27137079783229484 0.04595793036329144
-0.02562906460421849 -0.022029042280818895 -0.22641750173331648 -0.08764877999811486 -0.13516095948676968 -0.001569565306182717 0.0016025962679610405 -0.00082372427690034
0.0014153955690517845 -0.00024338081045653648 0.0017032464941451162 -0.0030358076085345684 0.0013458518788902756 0.002433217303004762 0.0011015690924920942 0.16757363619485885
-0.17941812202400584 -0.09592308081436238 -0.1400794707223259 0.2646610013287044 0.152695762119745 -0.2884695820532008 0.007569448668645995 -0.21455467951244958
0.10341989158584743 0.08573962185850159 -0.8498034897629707 0.6427526464794225 -0.10961114581828087 -0.4649849966653274 0.622348390475295 2.1475579671446403
2.1233968561603063e-07 -2.670322491317021e-07 8.237284123414948e-07 4.516582169414991e-07 -3.3303094080260098e-06 1.7712271516907228e-06 1.2358629826948506e-06 -4.5580700593651495e-06
3.1960812278233672e-06 -3.7584359368170715e-06 4.536593756015405e-06 -6.626753048054996e-06 3.765306642449151e-06 8.269552942063271e-06 -7.151398837448515e-06 -4.2180950847028805e-06
1.288241948403737e-05 -4.460427002505892e-06 0.00022456526531608047 -0.0005301467855239772 0.0006890385928834662 -0.0011197009968066179 0.0011378603275332799 0.0006742701763012021
-0.0005488303723876151 -0.0013096889067980933 0.0005504264420608494
00000000: 1f43 fdf5 7b2d 6dbf 55d4 ebd8 2f93 803f
00000010: 360f 6959 f45f 8abf 9f0d b32c a48c 843f
00000020: 0b1a f36b 11f5 7a3f 8f10 928c 6028 52bf
00000030: e6be 6408 c9ed 82bf 3c17 b128 a9e4 823f
00000040: 1c84 869c 63ee ad3f 6495 d632 83a9 9abf
00000050: 0dae f547 8ea6 a0bf 2302 e53b 1888 d03f
00000060: b49c d15b 1808 d0bf eb11 5f71 49db bcbf
00000070: 7545 ffc0 db2d e23f b6ef 29f9 4681 e2bf
00000080: 88b7 eabb 55cb 8abf efbb 1a08 0928 f03f
00000090: 0e8f 99d9 026f 88bf a10a ae89 6b10 9b3f
000000a0: b100 5dde 935f 9abf f9ad e27f 01b7 933f
000000b0: 5014 ca20 2e2b 9abf 3f60 6bdb 68da a2bf
000000c0: e8ea 4017 8bc0 763f 090b 8928 2f94 a53f
000000d0: fac0 5205 63c7 a33f 91fa 2e46 1669 5fbf
000000e0: 5227 b550 195b 29bf 3146 79b8 6b25 573f
000000f0: bb03 4e43 b782 56bf d38c 9288 cdef 433f
00000100: 3ae1 bad4 38e0 08bf 040a 0e67 c19d 4d3f
00000110: 340c 8f58 15ea 52bf bf9d 6f3c 1f9d 593f
00000120: d586 d679 c6f7 cbbf fa9d 3014 2300 a03f
00000130: 55dd 719f 235e d13f d1ea cd3f cc87 a73f
00000140: 3171 3569 813e 9abf 381e a200 c88e 96bf
00000150: 16e3 97aa 3ffb ccbf cb4e a083 2670 b6bf
00000160: 3588 584e f44c c1bf 92e8 2cea 3bb7 59bf
00000170: c23a d0a3 c641 5a3f 3843 446a e6fd 4abf
00000180: dfcd 846b 9930 573f fc25 263e 81e6 2fbf
00000190: 3200 52ff eee7 5b3f 99c9 a8cc 8cde 68bf
000001a0: 82a8 8673 e90c 563f 61e7 b197 d3ee 633f
000001b0: 0199 7fce 500c 523f eb79 908b 0d73 c53f
000001c0: 5790 334b 2cf7 c6bf 067d 073f 6a8e b8bf
000001d0: daf3 cbc4 1fee c1bf feef 4eb2 34f0 d03f
000001e0: 8c63 45e4 888b c33f 57cb 331f 4976 d2bf
000001f0: 337a b067 2401 7f3f 81d8 da19 8776 cbbf
00000200: f9f8 1ddc b979 ba3f 308a da27 08f3 b53f
00000210: 4ce0 9116 9731 ebbf 7f7d 81ff 6d91 e43f
00000220: ed0c 91de 790f bcbf 5fba 736e 50c2 ddbf
00000230: 7de8 f92b 47ea e33f 2b34 19df 322e 0140
00000240: e616 82a0 ef7f 8c3e 3cde 6b40 94eb 91be
00000250: 4b05 5cef c5a3 ab3e 490f 61d8 6d4f 9e3e
00000260: 7b1d 88f5 c8ef cbbe 4a7c 45d9 5cb7 bd3e
00000270: 3f87 45b8 fdbb b43e c18a f3c1 301e d3be
00000280: 865e 953c 88cf ca3e a95c e401 2e87 cfbe
00000290: 3b7d 7465 2107 d33e 4d96 f701 6ccb dbbe
000002a0: 0bf5 be37 ef95 cf3e 21cb b8b3 ae57 e13e
000002b0: 310b 4e8b c1fe ddbe 90b9 ee25 25b1 d1be
000002c0: dae1 8740 3204 eb3e 6898 a9d6 58b5 d2be
000002d0: 69bb d1f0 286f 2d3f 9a4b 8e8d 315f 41bf
000002e0: f44e 6e1c 1394 463f a1c2 67ca 5d58 52bf
000002f0: 331a 3a39 88a4 523f 0f89 8d2d 3018 463f
00000300: cbf3 0e40 ecfb 41bf a9cc 72c1 3b75 55bf
00000310: e000 a4c8 4f09 423f
